wakeword/wake_word_stop_lite.tflite (tflite, 70692 bytes, 9 tensors)

dense/bias f4 [64]
000000 93 e9 ea 3e ee 23 de 3e 53 1c b4 3e 78 49 e2 3e
       0.45881328 0.43386787 0.3517786 0.44196677
000010 3c 82 0c 3f 7e 6e 86 bd 90 ae a5 bd 92 ac d0 3e
       0.5488622 -0.065640435 -0.08089936 0.4075666
000020 b6 d6 08 bd 50 91 52 bd 03 b6 d2 3e 8c f8 f8 bc
       -0.03340789 -0.051408112 0.4115449 -0.030391954
000030 9c 2a 4a 3e b3 fe 56 bd d6 4c e2 bc 7b 11 06 3e
       0.19742817 -0.052488994 -0.027624529 0.13092606
000040 12 14 dc 3e f3 86 38 bd 71 97 11 3f f2 14 db 3e
       0.42984062 -0.045050573 0.56871706 0.42789418
000050 e6 0b fa 3e 0f c8 fa 3e 88 e0 e0 3e 20 00 35 3f
       0.48837203 0.48980758 0.43921304 0.70703316
000060 e1 e4 fb 3e bb 72 6b bc 49 a4 c6 3e e4 ba a7 bd
       0.49198058 -0.014370616 0.38797215 -0.081899434
000070 6a 79 e6 bd 03 24 1e bd e4 7c 3e 3e d8 d5 15 3e
       -0.11253627 -0.038608562 0.1860233 0.14632356
000080 ea 00 79 bd 6d ed ba 3e 60 a0 f5 3d 0d f3 02 3f
       -0.060791887 0.36509266 0.1199348 0.51152116
000090 8c 8e 8e bc a9 9b fe 3e 37 a4 19 bd e0 26 18 3f
       -0.017401956 0.49728134 -0.037510123 0.5943432
0000a0 ad 25 42 3e 48 97 ff 3e 4b 61 48 bd 01 f1 90 bd
       0.18959685 0.49920106 -0.04892091 -0.07077218
0000b0 91 cb 14 3e 9a fc 02 3f a8 52 5f 3e 82 9c 5c bd
       0.1453078 0.5116669 0.21808875 -0.053860195
0000c0 a1 7c 13 3f 1f ec 07 3f 54 77 1f bd 13 3f 9e 3e
       0.57612044 0.5309467 -0.03893216 0.30907497
0000d0 96 2f 7e 3e c5 4c f3 3e 6a b6 ee 3e 6c ae 07 3f
       0.2482284 0.47519508 0.46623546 0.5300052
0000e0 f2 30 17 3f ba d8 06 3f 4b 68 0d 3f 01 5c 7a bd
       0.5905906 0.5267445 0.55237263 -0.061122898
0000f0 3f 8c e6 3e e1 b4 d0 3e 4e 0f 0f 3f 6e a6 ea 3e
       0.45028874 0.40763 0.5588273 0.458301

conv2d_2/bias f4 [64]
000000 d0 be 1f bd 9a 99 eb bc 09 d8 69 bd 8d 46 36 be
       -0.039000332 -0.028759766 -0.057090793 -0.1780035
000010 9e e1 d5 3d 86 66 b0 3c 06 ea cb bc 7b 0b 51 3e
       0.10443424 0.021533262 -0.024891865 0.20414536
000020 6a 73 31 3d 36 9a 82 bd aa 21 36 3d c4 f7 12 3e
       0.043322958 -0.0637707 0.0444657 0.14352328
000030 34 e6 51 3d 68 d6 01 bd 6e b7 16 3b 7c 97 07 bd
       0.05124493 -0.031698614 0.0022997516 -0.03310345
000040 27 5a 8f bd d0 89 c7 bd c2 7c 48 bd c5 24 0b be
       -0.06999617 -0.097430825 -0.048947103 -0.13588245
000050 ba 87 a5 3d 3c f4 c9 bc 29 19 1f bd d8 7e 02 be
       0.080825284 -0.024652593 -0.038842354 -0.127437
000060 b7 99 91 bd 27 ba 2e bd 5b 61 6c bc 39 3c 79 bd
       -0.07109397 -0.042657997 -0.014427508 -0.06084845
000070 5c 69 43 3e 75 a5 03 bd 19 b2 fc bc f5 6a 0d be
       0.1908316 -0.032140214 -0.030846642 -0.13810332
000080 02 00 6b bd d2 3c ed bd d4 63 d1 bc 47 a8 cb bd
       -0.057373054 -0.11583866 -0.025560297 -0.09944206
000090 71 57 8c bc 9d a7 3e bd 94 15 21 bc 5e b3 5c 3d
       -0.017131539 -0.046546567 -0.009831805 0.053881995
0000a0 3d 55 56 bc 44 34 06 3e 86 19 d8 3b 4e ef 5e bd
       -0.013081846 0.13105875 0.0065948395 -0.054427437
0000b0 44 ed b3 bc b4 c6 1d bd 54 d7 10 3e 10 dc 25 3d
       -0.021963723 -0.038519576 0.14144641 0.04049307
0000c0 5b 84 9d bd ee 61 37 bc 74 ae d2 bd 76 5f b9 3d
       -0.076912604 -0.011192782 -0.102871805 0.09051411
0000d0 2c 83 91 bd 6d 45 13 39 e5 21 5c bc 74 01 4b bd
       -0.07105097 0.00014044876 -0.013435815 -0.049561933
0000e0 25 84 ec 3c a4 2b 72 3c 8f 15 06 bd 5a ae a7 bc
       0.028871605 0.014780913 -0.032735404 -0.02046888
0000f0 74 11 fc bc 2a 3e cc bc 5a 55 8a 3d c6 a6 e9 3d
       -0.030770041 -0.024931986 0.06754561 0.11408763

conv2d_1/bias f4 [32]
000000 49 d1 d3 bd 67 56 b5 3e ec e4 2a 3d dd e5 c2 bd
       -0.10342652 0.35417482 0.041722223 -0.09516499
000010 67 7f 2e 3d c7 ee cc 3d 48 21 99 be e9 5e 6b 3e
       0.04260197 0.10006481 -0.29908204 0.22985424
000020 ca 7a a1 3d 15 0a a1 3d 8f 15 51 be aa fa a1 bc
       0.07884748 0.07863251 -0.2041838 -0.019772846
000030 78 0f 07 be 07 b9 33 3e 70 da 44 3e 75 c8 48 be
       -0.13189495 0.17551051 0.19223952 -0.19607718
000040 8f 08 0e be df 72 8e be f9 54 cd 3d d1 4f a4 bd
       -0.13870452 -0.27822015 0.10025973 -0.08023036
000050 1c b2 1e 3f 29 5b 5e be 33 f4 10 be e7 34 80 3f
       0.61990523 -0.21714462 -0.14155655 1.0016145
000060 ec c7 0a be 51 33 09 be b0 dd 4b be 49 33 41 be
       -0.13552827 -0.13398482 -0.19908786 -0.1886722
000070 37 1e 0a bd 55 f5 83 be be ca e7 3d c0 ed 5b 3f
       -0.03372022 -0.2577311 0.11317967 0.8590965

conv2d/bias f4 [32]
000000 5e 84 03 3f 21 5b 64 bc 4b f0 79 bf 02 93 5c 3f
       0.5137385 -0.013937742 -0.9763228 0.86161816
000010 f2 84 22 bf ad c5 cb be 75 44 18 3e ec bc 7b 3f
       -0.6348411 -0.39799252 0.14869864 0.98335147
000020 2f 8c 17 bf 9c 46 02 bf 04 68 26 bf d2 ee f9 be
       -0.5919828 -0.5088899 -0.65002465 -0.48815018
000030 1d 8c 14 bf 4d be 18 bf ed 48 82 bf 7f cb 0b be
       -0.58026296 -0.59665376 -1.0178505 -0.13651846
000040 57 66 67 be f2 bc 1d bf e4 ab 91 be f9 5e a1 be
       -0.22597633 -0.6161643 -0.28451455 -0.3151777
000050 ae b0 78 3e 15 fd 0c bf df f1 22 bf 11 05 96 3f
       0.24286148 -0.5507367 -0.63650316 1.1720296
000060 67 66 2c bf 6e a6 d5 bd e4 68 bd be 16 40 c9 be
       -0.67343754 -0.104321346 -0.36994088 -0.39306706
000070 5f 41 51 3f 29 0b 30 bf d2 62 95 3f 1d fe f1 3e
       0.81740373 -0.6876703 1.1670783 0.47264186

sequential/dense/MatMul f4 [64, 64]
000000 d7 2e a6 3e 18 e5 bc be f8 66 a1 3e 69 b0 68 be
       0.3245761 -0.36893535 0.3152387 -0.22723545
000010 2b 5b 9f 3e bc 1c 08 3f 71 a8 86 3e a9 b0 64 bc
       0.31124243 0.53168845 0.26300386 -0.013958135
000020 9c 8a fe 3e 05 8d 8b 3e b4 9b 08 3f 7a 40 43 3f
       0.49715126 0.27256027 0.53362584 0.7627026
000030 8b b4 be 3e aa 92 79 3e 63 da 2c 3d 21 be 98 be
       0.37247118 0.24372354 0.042200457 -0.29832557
000040 80 64 89 3e 40 2a a9 3d 6e 92 6a 3e 6c bd c1 3e
       0.26834488 0.08260012 0.22907421 0.3783983
000050 2f 22 c7 bc 2b d7 6a 3e 62 b8 08 3d 23 46 5c be
       -0.024308292 0.22933643 0.033378966 -0.2151113
000060 3b 0a 13 3f b1 8b 97 3d d4 39 0c 3f ad c7 6a 3d
       0.57437485 0.07399691 0.5477574 0.057319332
000070 05 44 0d 3f 9e 36 81 bc 35 16 17 3f bc 4e 74 3e
       0.55181915 -0.015773114 0.5901826 0.2385816
000080 9a 48 dd 3e 81 2e b4 be f3 0f 13 3e 4d 31 fb 3d
       0.43219453 -0.3519173 0.14361553 0.12265263
000090 31 e4 c9 3e 53 99 f3 3b fb 04 0d bb 06 86 57 3e
       0.3943191 0.007434049 -0.0021517861 0.2104722
0000a0 48 58 43 3d ba d0 9b 3e 03 60 a3 bd 1b cc b4 3d
       0.047691613 0.30432683 -0.07977297 0.088279925
0000b0 bb 92 95 bc e0 02 00 3f b1 04 21 3f e5 3e f6 be
       -0.018258443 0.50004387 0.62897784 -0.4809486
0000c0 16 af 0a 3f 09 43 a1 be 5a 88 af 3d 6e 62 f7 3e
       0.5417341 -0.31496456 0.08570929 0.48317283
0000d0 26 38 3a 3f 8b 04 3c 3f 9d 93 3a be 58 e8 ea 3e
       0.72741926 0.7344443 -0.18220372 0.4588039
0000e0 46 b6 3c 3e cb 12 2d 3e 5e b3 0f 3e 53 74 4c 3e
       0.18428907 0.169017 0.14033267 0.19966249
0000f0 c3 f3 e4 3e c7 66 1b 3e 54 27 bd 3e 30 0f cd 3e
       0.44717225 0.15175925 0.36944067 0.4005065
000100 0f 6e c6 3c ee a9 b4 bd b9 20 a0 3e b5 55 f8 be
       0.024222402 -0.08821474 0.31274965 -0.4850289
000110 68 a5 a9 3e 0e 11 43 3f 00 42 a2 3d cf cd ea 3d
       0.33134007 0.761979 0.07922745 0.11465036
000120 d0 ed ad 3e a3 d6 2b 3e 89 ea b9 3e d8 64 94 3f
       0.339705 0.16781096 0.3631175 1.1593275
000130 66 2a b2 3e b0 60 8e 3e 39 70 6a bd 88 ae eb be
       0.34797972 0.27808142 -0.05723593 -0.46031594
000140 82 0b a5 3e f0 79 b2 3e 44 27 a2 3d a0 7a dc 3e
       0.32235342 0.34858656 0.079176456 0.43062305
000150 87 77 83 3e d8 74 83 3e 87 99 4e 3e 06 a6 43 be
       0.2567713 0.25675082 0.20175754 -0.19106302
000160 13 93 00 3f 76 8b a3 3e 0f 79 b3 3e aa 04 9e 3e
       0.5022442 0.31942338 0.35053298 0.30862933
000170 70 15 67 3f b6 6f 01 3e ac d7 0c 3f 90 24 36 3e
       0.90267086 0.1264027 0.5501659 0.17787385
000180 a9 51 02 3f 6e f5 b3 be e2 ad e9 3e 12 05 ff 3e
       0.50905854 -0.35148185 0.45640475 0.49808556
000190 62 37 cf 3e f4 41 17 bd 40 6f 00 3f 05 e9 20 3e
       0.4047194 -0.036928132 0.50169754 0.1571389
0001a0 9e 6b 98 3c e1 57 0e 3d 74 ba 8c 3d d2 af 46 3e
       0.018606003 0.034751777 0.068715006 0.19403008
0001b0 d9 f8 bc 3e 83 77 48 3f 0d 64 39 3f ee 91 4a bf
       0.36908606 0.7830736 0.7241829 -0.7912892
0001c0 44 f8 03 3f b4 80 86 3d 29 ad 94 bd f4 16 16 3f
       0.515507 0.06567517 -0.0725959 0.58628774
0001d0 46 fe bd 3e 66 a9 1d 3f 3f 61 f7 bc de 45 bf 3e
       0.37108058 0.61586607 -0.030197738 0.37357992
0001e0 f2 05 ba 3e bc 26 cd bd 77 5d 12 be 95 9e 65 3e
       0.3633266 -0.100171536 -0.14293467 0.22423775
0001f0 47 16 28 3f a2 83 28 be 57 0c 9d 3e 44 8e af 3e
       0.6565899 -0.16456464 0.30673477 0.34288228
000200 2f 1e 80 3d 2a 1a 4c be 25 c7 5e 3e 7c a8 d3 be
       0.06255757 -0.19931856 0.21755655 -0.4133948
000210 58 1f ee 3e 36 d6 0b 3f c5 c6 98 3e b6 39 3d 3d
       0.46508288 0.54623735 0.2983915 0.046197616
000220 c6 38 fe 3e b3 42 ad 3e d4 33 46 3e 31 3c 7a 3f
       0.4965269 0.3383995 0.19355708 0.97748095
000230 88 9f 03 3f d8 6f 1c 3e 66 be 8d bc ed 59 ea be
       0.514153 0.1527704 -0.017302703 -0.45771733
000240 65 d4 0a 3e 56 50 b3 3e 08 c9 6b bd 23 b5 b6 3e
       0.13557585 0.3502223 -0.057564765 0.3568507
000250 65 73 1f be 8b f9 30 3e a7 84 00 3e b0 e5 8b be
       -0.15571363 0.17282693 0.12550603 -0.27323675
000260 7b 2c 6c 3e cd f4 95 3c 2e e3 89 3e 42 e6 f3 3d
       0.23063843 0.018305207 0.26931137 0.119091526
000270 e0 6c 1b 3f c3 a1 65 3e ad a3 2c 3f 47 a3 80 3e
       0.60713005 0.22424988 0.6743725 0.2512457
000280 51 c1 99 3e 0d 0b ce be 6c d8 d2 3e 22 52 cf 3e
       0.300303 -0.40242806 0.41180742 0.4049235
000290 42 66 c7 3e 4d 37 bb bd 3b 69 96 3e 21 18 a4 3e
       0.38945204 -0.09141407 0.2937716 0.3204966
0002a0 9b a9 ae bd 82 43 82 3e 6a 50 93 3e 38 40 71 3e
       -0.085284434 0.2544213 0.2877229 0.23559654
0002b0 36 91 3d 3e 05 2a 12 3f de d6 7c 3f 7b cd 15 bf
       0.18512425 0.57095367 0.9876536 -0.58516663
0002c0 cf fb 1f 3f cc da 4c be 36 8c 58 3e 41 d4 11 3f
       0.62493604 -0.2000534 0.21147236 0.569645
0002d0 cb 25 11 3f 16 88 45 3f 19 58 10 bd a3 22 bf 3e
       0.5669829 0.77160776 -0.035240266 0.37331113
0002e0 48 2f 9a 3d 36 b3 1c 3e 22 f4 50 3d 44 aa c9 3e
       0.075285494 0.15302739 0.051014073 0.39387715
0002f0 4c e6 1d 3f a9 12 8f bd 11 8e c0 3e dc ae c1 3e
       0.6167953 -0.06985981 0.37608388 0.3782872
000300 e5 22 7f 3d 42 ed 86 be 48 4a 5c 3e 7c 08 f2 be
       0.062289137 -0.26352888 0.21512711 -0.47272098
000310 21 66 69 3e c2 ac 2f 3f 9e 16 69 3e 64 d7 11 3e
       0.22792865 0.6862298 0.22762534 0.14242321
000320 3d 69 a3 3e f6 1d 6d 3e d7 89 79 3e 44 40 8d 3f
       0.31916228 0.2315596 0.24368988 1.1035237
000330 76 00 fc 3e 04 6e 37 3e b6 0a f0 3d e9 23 d0 be
       0.49219102 0.17913061 0.11720793 -0.40652397
000340 41 80 f6 3d a4 ce ed 3d 4b c2 02 3d 6a 93 ce 3e
       0.12036181 0.11611679 0.031923573 0.40346843
000350 5a 4f 2c 3e 3c 8b 44 3e a5 11 f9 3d 2c 66 9f be
       0.16827145 0.19193739 0.121615686 -0.31132638
000360 32 c8 1a 3f df 27 61 3e 13 db af 3e 63 b7 6c 3e
       0.60461724 0.21987866 0.34346828 0.23116831
000370 67 1a 3b 3f c5 7a 96 3d b4 28 0b 3f 5c 5a 91 3e
       0.7308716 0.07347635 0.54358983 0.2838925
000380 05 1c 03 3f a1 98 c0 be a9 91 cc 3e 9d ee 12 3f
       0.5121463 -0.37616447 0.3995488 0.57395345
000390 42 33 d9 3e 23 81 20 be a6 6e eb 3e 2a 62 22 3e
       0.4242192 -0.15674262 0.45982856 0.15857759
0003a0 5b fb 12 be 58 5d a4 3d bf 96 9e bd ce 57 12 3d
       -0.14353697 0.080256164 -0.07743596 0.03572827
0003b0 91 fa 82 3e 4a a7 02 3f 55 61 50 3f d6 b0 d5 be
       0.25581792 0.5103651 0.81398517 -0.41736478
0003c0 ae ce 2a 3f ef 46 11 be 9a 4b ac bd 3a dc 3e 3f
       0.6672162 -0.14187215 -0.08412857 0.7455479
0003d0 9f 43 21 3f f0 a1 06 3f b8 c4 f1 bd 94 7b 11 3e
       0.62993807 0.52590847 -0.11805099 0.14207298
0003e0 a0 b5 57 3d 69 b1 a6 bd e0 66 83 bc 8d 5c 04 3f
       0.052663445 -0.08139307 -0.016040266 0.5170372
0003f0 54 dd 16 3f 93 27 4c 3e 23 43 cd 3e 6f c7 8e 3e
       0.5893147 0.19936971 0.40090284 0.2788653

sequential/dense_1/MatMul f4 [1, 64]
000000 78 13 08 bd f9 a7 0e bd d4 85 8b bd 16 e5 12 bd
       -0.03322169 -0.03482816 -0.06812635 -0.035863005
000010 2e 99 bd bc d0 8e 7e 3e ee 2a 48 3e 8d 13 8a bd
       -0.02314433 0.24859166 0.19547626 -0.0674201
000020 83 43 59 3d d0 ad 80 3e b1 72 f4 bc d5 61 06 3e
       0.0530429 0.25132608 -0.029839845 0.13123257
000030 20 ec fb 3e b4 25 1e 3c 3a 87 9c 3d 40 30 da 3e
       0.49203587 0.009652544 0.0764298 0.42614937
000040 ff 1c 10 bd fd 7d a2 3d 35 15 90 bc c8 e3 ea bc
       -0.035183903 0.079341866 -0.017588237 -0.028673068
000050 e8 64 ff bc f8 00 43 bd f4 cb 2d bd fd 6c c3 bc
       -0.031176046 -0.047608346 -0.042430833 -0.02385568
000060 e4 2f ce bc cf fa 10 be df bf 83 bd 2d 2a 45 3e
       -0.02516932 -0.14158176 -0.06433081 0.1925437
000070 f4 34 70 3d 33 13 1c 3e 4d 8c c5 3e 82 1c 24 bd
       0.05864425 0.15241699 0.38583604 -0.04006625
000080 00 81 99 3d f3 b8 0a bd 2c 7b 02 3f b7 a3 6b bc
       0.07495308 -0.033867788 0.50969195 -0.014382294
000090 72 21 8c bd ac 7c 13 bd a5 d1 85 3e 92 4c 4e bc
       -0.06842317 -0.03600757 0.2613651 -0.012591498
0000a0 9d 66 07 3f 5e 69 89 bc 90 95 2a 3e 0b 34 34 3e
       0.5289095 -0.016773876 0.16658616 0.17597978
0000b0 13 a3 38 3f 6b 02 e5 bc 1d 10 c7 3e ca 8a 00 3e
       0.7212383 -0.027955255 0.3887948 0.12552944
0000c0 2c 58 7a bc 2c a3 0f bd b1 d2 72 3e 6e f0 fb bb
       -0.015279811 -0.035067722 0.23713185 -0.0076885736
0000d0 a0 0f 0c 3f 03 9f 18 bd ea c0 ee bc 5f 10 0b 3b
       0.5471134 -0.03726102 -0.029144723 0.0021219475
0000e0 62 74 ee bc 81 68 46 bd 41 24 11 bd 9f db 69 3e
       -0.02910823 -0.048439506 -0.035434965 0.22837685
0000f0 4e 23 3d bc 17 c4 bd bc 44 f4 ac bc c3 0d 23 bd
       -0.011544062 -0.023164792 -0.021112569 -0.039808046

sequential/conv2d/Conv2D f4 [32, 2, 2, 1]
000000 64 75 c0 bd f5 bb 2b 3d 3a 80 81 bc 40 e9 87 bd
       -0.093973905 0.041927297 -0.015808214 -0.06636286
000010 a8 e0 95 bd 12 c8 0e 3e cd 87 bb bd 96 15 d3 3d
       -0.073182404 0.13943508 -0.09156761 0.103068516
000020 f8 4a 35 bc 7c 22 7a 3d 80 67 4f 3d d2 f6 66 3c
       -0.011065237 0.061068043 0.050635815 0.0140969325
000030 82 7c 37 3e b3 e2 85 bd 39 30 ea be fe 21 e9 3e
       0.1791859 -0.0653738 -0.45739916 0.45533746
000040 c4 10 db bb f0 4c 0d 3d a7 c1 98 3b 73 fe c2 3c
       -0.006685348 0.0344972 0.004661757 0.023802971
000050 3d 5f e3 3b 9f 72 ad 3c b2 ef ce 3c 83 47 d3 ba
       0.0069388435 0.02117282 0.02526078 -0.0016119335
000060 fb 04 4e 3e bf 0a 6a be de 5a 13 3e e2 e8 ae bd
       0.20119087 -0.22855662 0.14390132 -0.085405126
000070 d5 57 b0 3e 26 be 94 be e5 7a 26 be 6e ca 63 bd
       0.3444201 -0.29051322 -0.16257818 -0.055612974
000080 38 ae da bc e6 f8 34 3d 82 c9 66 bb a4 71 9e 3c
       -0.026694402 0.04418268 -0.0035215323 0.019341297
000090 c6 c9 8c 3c c9 db f0 bb 31 c6 4c bd ab b9 fc 3c
       0.017186057 -0.007350419 -0.049993698 0.030850252
0000a0 71 0a 01 3d 03 29 6c bc b9 09 e7 bb 2e d0 c3 bb
       0.0315041 -0.014414075 -0.0070507196 -0.0059757447
0000b0 5a d6 20 3c 4f 2b a2 bb c2 87 27 3c 94 b7 16 3c
       0.00981673 -0.0049490104 0.010225238 0.009199042
0000c0 fc e6 da bb f7 7f 4a 3c 95 c4 c2 3c 89 cb ac bc
       -0.0066803675 0.012359611 0.023775378 -0.021093147
0000d0 71 32 da 3b 9b 3d 04 3d 5e f3 33 3d b3 3e 1a 3c
       0.006658845 0.032285314 0.043933265 0.009414363
0000e0 da 73 2b bd 86 b0 93 3d a5 59 4d 3d 47 2a 8d 39
       -0.04185853 0.072114035 0.05013432 0.00026925115
0000f0 70 89 8f bd 34 66 91 3d 3c f0 16 bd 36 32 0f 3d
       -0.07008636 0.07099572 -0.0368502 0.034959994
000100 c6 28 6a 3c 14 9e 03 bc f6 cd a5 3a 82 ee 80 bb
       0.014291948 -0.008033294 0.0012649882 -0.0039346823
000110 fa bb 06 3d 2d be 96 bd e0 30 9c 3d d3 30 af bd
       0.032894112 -0.07360492 0.0762651 -0.08554234
000120 28 75 a9 b9 30 b4 d5 3a 06 76 60 3c b2 53 12 bc
       -0.0003232148 0.001630431 0.013700014 -0.008931087
000130 6e f2 6f 3c ee 75 20 bc a6 d7 70 3b 70 9f ae 3a
       0.014645202 -0.009793742 0.003674963 0.0013322663
000140 9d e5 67 bd b0 1e 9e 3d 6f bd 42 3e d6 17 22 bb
       -0.05661546 0.07720697 0.19017576 -0.0024733446
000150 a4 20 d7 3c 37 51 5a bc f4 2c 87 bc 2b c6 67 3c
       0.026260681 -0.013325027 -0.016500928 0.014146368
000160 5d 1a 23 3d 96 8b 19 bd ce 4e 0b bd 4d 40 30 3c
       0.039820064 -0.037486635 -0.0340107 0.010757518
000170 90 a0 80 3d 2d 10 28 3e 64 be 45 3e 50 03 b6 be
       0.06280625 0.1641242 0.1931091 -0.35549402
000180 10 cf 02 3d 9b c1 60 3b 20 76 78 3d b4 aa 60 bd
       0.03193575 0.0034295085 0.060659528 -0.054850295
000190 bd 64 77 bd 65 e2 f0 3d b6 f1 8a 3e e7 2e 7f be
       -0.060398806 0.11761931 0.27137536 -0.24920236
0001a0 9d d9 28 bd 16 2a 3c 3d b2 bf e1 3b 47 79 38 bd
       -0.041223157 0.045938574 0.006889307 -0.045037534
0001b0 34 d5 67 bb d1 cd 97 3c ac 45 a6 bc 67 9f 05 3d
       -0.0035374882 0.018530758 -0.020296894 0.03262272
0001c0 e9 e7 8c be 25 e7 de bd 88 f7 3e 3e 7d 81 89 bd
       -0.27520683 -0.10883931 0.18649113 -0.06714151
0001d0 4f 5b 1f 3d 09 98 43 bc f3 36 25 bd 09 60 86 3c
       0.038905438 -0.0119381035 -0.040335607 0.016403215
0001e0 1a b2 80 be e1 d2 bc 3d c9 84 a7 3e c9 13 87 be
       -0.2513588 0.092199095 0.32718495 -0.26382282
0001f0 54 5a f7 bd f7 c8 a1 3d c4 21 b2 be 03 f5 9e 3e
       -0.120777756 0.07899659 -0.34791386 0.31046304

sequential/conv2d_1/Conv2D f4 [32, 2, 2, 32]
000000 c4 2e 57 bc 1a 15 52 3e 57 1c 3d be ec db fe bc
       -0.013133708 0.20515862 -0.18467842 -0.031110726
000010 81 53 ec bd 5c df 6c bd 3d ab f7 3d ca 0a 2f 3e
       -0.115393646 -0.0578302 0.12093208 0.1709396
000020 0b 8a aa 3e dc 13 1b 3e 4a 99 05 be 62 54 d2 be
       0.33308443 0.15144295 -0.13046756 -0.41080004
000030 19 92 08 3e 73 8d bf bd a2 16 d0 3d 22 e9 46 3d
       0.13336982 -0.09353151 0.10160567 0.048562177
000040 a8 aa 79 3e bb b9 31 3e 47 12 33 be b7 9c 6f bc
       0.24381506 0.17356007 -0.17487441 -0.014624766
000050 0e 95 7b 3d 43 2f 2f be b9 51 4a be 63 d7 c3 3d
       0.061421447 -0.17107873 -0.19757737 0.09562566
000060 10 15 03 bf 8a 42 ef 3c f4 c2 b0 3d e9 05 8c 3c
       -0.51204014 0.029206533 0.08630934 0.017092662
000070 8e 51 77 3d ca ef c0 3e 93 79 1c bd 38 34 1c bd
       0.06038051 0.37682945 -0.03820188 -0.038135737
000080 c8 d6 b4 bd 31 9b 89 3e f7 16 55 be 54 4b 64 b9
       -0.08830029 0.26876214 -0.20809542 -0.00021771836
000090 d8 da 31 be 0d 55 ea bd 2e 0d 54 bf 8f 1d 29 be
       -0.17368639 -0.114420034 -0.8283261 -0.16515182
0000a0 69 5a de 3e 11 0b 14 be b1 c7 ef be c8 15 aa bd
       0.43428352 -0.14457346 -0.4683204 -0.08304936
0000b0 0d c1 6a 3e 77 11 0f be 6b 6b dd 3c ed 64 22 3f
       0.22925206 -0.13971506 0.02702876 0.6343525
0000c0 d2 48 a4 bd 47 12 3a bf e8 b9 a0 be 68 7b 24 bf
       -0.08021702 -0.7268414 -0.31391835 -0.64250803
0000d0 6b d1 83 bd 01 81 bd bc ce d0 16 bf 1d 45 cd 3d
       -0.06436428 -0.023132803 -0.5891236 0.10022948
0000e0 73 51 db bd 67 0f b4 3d b6 56 ae 3d 02 f9 b7 be
       -0.107088946 0.08792 0.085126325 -0.35932165
0000f0 cc b8 77 bd 6b fc 17 bf 5c d4 d9 3d 8a 2f 06 3e
       -0.06047897 -0.59369534 0.106362075 0.13104072
000100 bd 43 1c 3d 72 b6 f4 3e 49 a2 76 3e 61 50 ba 3e
       0.038150538 0.47795445 0.24085344 0.3638945
000110 09 4c d9 3c 1b ef 02 bf cf bf 75 3e 93 25 6d bd
       0.026525514 -0.51146096 0.2399895 -0.05789716
000120 72 b9 3b bd 02 cf a0 bd 5b 3d 61 3e eb 45 b7 3d
       -0.04583115 -0.078519836 0.21996062 0.08948883
000130 18 4f 41 3e 9e 02 9a be 2b 21 6f 3e 9b a0 45 3e
       0.18877828 -0.30080122 0.23352496 0.19299547
000140 5a 76 d8 3e 2d 7a 13 3e 0e d6 ab be 87 98 86 3d
       0.42277795 0.14402075 -0.33561748 0.06572061
000150 25 4e 0a be f3 31 a2 3e 9f 37 90 3d 51 9b 5e 3e
       -0.13506372 0.31678733 0.07041859 0.21738936
000160 52 b5 67 3d e9 32 11 3e 38 0d b4 3d a8 0e 43 3e
       0.056569405 0.14179577 0.08791584 0.1904856
000170 0e 40 7c bd e2 bb 6d be 72 07 29 3d cc c2 3c 3e
       -0.061584525 -0.23216203 0.041266866 0.18433684
000180 78 51 9c bd ca 5d 8b be 8e 8f 64 3d 9f 3b a7 bd
       -0.076327264 -0.27219993 0.055800967 -0.08165669
000190 1e 51 4c bd cb df ea be cc 9a a5 3e d4 d6 db bd
       -0.049882047 -0.45873865 0.32344663 -0.107343346
0001a0 e0 66 14 bf 6d 38 82 bd 70 30 5c 3d 0d e2 de bd
       -0.57969475 -0.063584186 0.05375713 -0.108829595
0001b0 b5 8b 8e bd 9c 98 48 3d a1 39 01 3e 33 3c f7 be
       -0.06960241 0.048973665 0.1261964 -0.48288116
0001c0 7d 77 cd 3d ba 4d 8e 3e 5d 7c 93 3d 40 50 63 3d
       0.10032556 0.27793676 0.07201455 0.055496454
0001d0 07 24 0c be c9 84 f1 3c b2 69 26 3e 52 f9 27 bd
       -0.13685618 0.029482262 0.16251257 -0.041009255
0001e0 b8 1c 32 3e 0e 84 c9 bd 1d a7 96 be c3 fc 26 3e
       0.17393768 -0.098396406 -0.29424372 0.16307358
0001f0 75 12 14 3d 4d a4 92 3b 4e 63 f5 be 4d ee f7 be
       0.036150414 0.0044751526 -0.47927326 -0.48423997
000200 4c 6a 8c 3e c4 d9 1b 3e 4e e6 93 be 1a 81 db 3d
       0.27424848 0.1521979 -0.28886646 0.107179835
000210 a4 ce 56 bd e0 85 cf 3d d6 18 8f bf d2 c9 13 3e
       -0.05244316 0.101329565 -1.1179454 0.14432457
000220 2a 5b ac 3d ba 7b e2 3c cd a4 07 bf 06 f0 fb bd
       0.08415826 0.027646888 -0.5298584 -0.1230164
000230 5b f3 af bd 23 d5 37 3e f3 25 de bd ac 89 d1 3e
       -0.08591338 0.17952399 -0.10847082 0.40925348
000240 08 0f 71 3c 5e 8e 1c bf 0f 63 13 3d 67 15 bf bd
       0.014713056 -0.61154735 0.03598314 -0.09330254
000250 e6 2a 0d 3f fd 68 5b be 1b 90 f2 be c2 fb a6 3e
       0.5514358 -0.21426769 -0.4737557 0.3261395
000260 c2 05 69 3d 8f 07 21 3f 07 4e ef 3c 42 70 97 3d
       0.056890257 0.6290216 0.029212011 0.07394458
000270 3d ef 50 3e 86 1a ff be 7e ec b9 3e 75 b1 02 3f
       0.20403762 -0.49824923 0.36313242 0.5105203
000280 3a a1 22 3e af 15 f1 bd 52 83 af be 81 6e 86 3d
       0.15881816 -0.11771714 -0.34279877 0.06564046
000290 9b d9 c8 be 87 a0 c7 3d da b2 62 be 04 81 2f 3e
       -0.3922852 0.09747415 -0.22138539 0.1713906
0002a0 85 e0 a0 be 08 97 18 bf 6d c1 6f be c6 d3 d5 be
       -0.31421295 -0.59605455 -0.2341363 -0.41763133
0002b0 56 92 16 bd ee 07 5a be 7d 1c 8a be ed f5 86 be
       -0.03676065 -0.21292087 -0.2697486 -0.263595
0002c0 a8 61 7f be 16 5c f5 be d4 a9 9e 3d 13 e9 0d bf
       -0.24939597 -0.47921818 0.07747236 -0.5543377
0002d0 95 aa d3 3e 70 c4 f7 be 13 1a cb be cb 39 2e 3f
       0.4134108 -0.48392057 -0.3966833 0.68056935
0002e0 bb 94 89 be b1 2f 35 3f d7 30 aa bc fa 1f 0a be
       -0.26871285 0.70775896 -0.020775242 -0.1348876
0002f0 4e b1 d6 bd bd de 03 bf 6c 21 80 3e e4 18 6f be
       -0.10483037 -0.51511747 0.250255 -0.23349339
000300 ea a3 a9 3e 18 e6 56 be a6 cf 7a be 8a e2 c9 bd
       0.3313287 -0.20986211 -0.24493274 -0.09857662
000310 d2 a0 3e bd 67 ba 07 bf 83 f1 24 3e 33 86 28 3f
       -0.04654009 -0.530188 0.16107754 0.6582977
000320 5b 0a 8a be 6f ca d2 3c fa d3 12 3e 4d 63 96 bd
       -0.26961026 0.025731293 0.14338675 -0.07343159
000330 51 54 73 bd a7 d3 d4 bd 4f 2f 85 3d 2c 3c 68 3d
       -0.059406582 -0.10391932 0.06503164 0.05669801
000340 06 1e 11 3e 64 4e 74 3e 2b ba 53 be ff 04 50 3f
       0.1417161 0.23858029 -0.20676486 0.81257623
000350 12 ab 22 be 77 75 1e 3e 34 51 84 3e 2c e1 8a 3e
       -0.1588557 0.15474497 0.25843203 0.27124918
000360 a9 36 1f 3e 01 99 13 be aa 87 80 3e b8 47 9a bd
       0.15548195 -0.14413835 0.25103503 -0.075332105
000370 65 30 f1 3e 26 3a 58 3e bc 93 e1 bc a5 db 40 3d
       0.47107235 0.21115932 -0.027536266 0.04708447
000380 49 46 08 3f ca 06 b1 be 38 50 8f be 64 11 1c 3e
       0.53232247 -0.34575492 -0.2799089 0.15241009
000390 f8 25 ad bd 37 64 96 be e1 c4 6d 3d cc fc 13 3f
       -0.084545076 -0.29373333 0.058049086 0.5780761
0003a0 ab e8 ee bd fe e3 ea 3d 33 ae d4 3e c0 98 68 bd
       -0.11665472 0.11469267 0.41539153 -0.0567863
0003b0 d9 a9 10 bf 6b 37 5a be b5 6e 4e be 51 0c b1 3e
       -0.56509167 -0.21310203 -0.20159419 0.3457971
0003c0 2e 64 1d 3e 87 7a 40 bf 7b 81 af be c2 37 59 3f
       0.15370247 -0.7518696 -0.34278473 0.84850705
0003d0 73 e4 fa be 66 c9 b2 3d 0d 30 ac 3e e7 7a 58 3e
       -0.49002418 0.0872982 0.3363041 0.21140634
0003e0 fc 63 d6 bc 48 7f e6 be 4a cd 3a 3e b9 cc 02 be
       -0.026170723 -0.45018983 0.18242374 -0.12773408
0003f0 21 b0 9e 3e 31 fd 96 3e 7f 38 a4 3d c4 5f 31 3f
       0.3099375 0.29490045 0.08018588 0.6928675

sequential/conv2d_2/Conv2D f4 [64, 2, 2, 32]
000000 d1 a9 1f be 53 b7 79 3c 07 d9 3c 3d 57 7a 9a 3d
       -0.15592124 0.015241462 0.04610541 0.07542866
000010 1a 39 a8 bd 70 4d 39 3e 65 21 e9 3e 38 4a 82 3d
       -0.08214016 0.18095946 0.4553329 0.06361812
000020 5e ba 37 3e 8e ae 99 3d 04 12 aa 3e 64 82 88 bd
       0.17942187 0.07503997 0.3321687 -0.06665495
000030 c5 03 8b 3d b4 2d 1d 3e 9f d7 13 3d 76 62 a5 3e
       0.06787828 0.15349466 0.036094304 0.32301682
000040 97 db 97 3e be 05 81 3e f2 3f b2 bc 29 7b f9 3d
       0.2965972 0.25199693 -0.021759007 0.12181694
000050 40 5a d5 bd 6c a1 fe 3d 75 69 9e 3c 89 06 63 bd
       -0.104176044 0.124331325 0.019337395 -0.055426154
000060 a1 89 d3 3e 35 e2 6d 3e b3 c3 02 3e 8a 6f 38 3e
       0.4131594 0.23230822 0.12769966 0.18011299
000070 c7 44 95 bc b0 35 d9 3e df 74 55 3d 09 ff 44 bc
       -0.018221272 0.42423773 0.05211341 -0.012023696
000080 b3 00 04 be 02 02 a0 3c 60 74 12 bd 4d 4f 31 bc
       -0.12890892 0.019532207 -0.035755515 -0.010822129
000090 d9 ac ad 3e 0c 30 43 3e 7c 30 d3 3e 76 84 37 be
       0.33920935 0.19061297 0.41247928 -0.17921624
0000a0 bc 6b 53 bd d2 00 7e 3e 13 07 c4 3e 50 67 26 3c
       -0.051616415 0.24805 0.38286647 0.010156468
0000b0 db 78 32 be a1 c8 7a 3e 16 a4 5a 3d 9b 05 6e 3e
       -0.17428915 0.24490596 0.05337914 0.23244326
0000c0 f6 ae dc 3e b1 d7 f4 3d 53 2f 05 3e 4e c8 01 be
       0.43102235 0.11955202 0.13006334 -0.12674066
0000d0 6c 76 29 bd d2 59 22 3e 60 92 e1 3b c8 91 80 3d
       -0.0413727 0.15854576 0.0068839043 0.062778056
0000e0 f0 b3 f9 3e a5 f8 18 3e d7 bb 1f be ad 39 18 3e
       0.48770094 0.149386 -0.15598999 0.14865752
0000f0 54 d4 b1 bc 7d ec bd 3e 37 d4 4c 3e de aa 25 be
       -0.021707691 0.3709449 0.20002829 -0.16178462
000100 22 4a d9 bc bd fd c0 3d 8e 6a 14 3e bb e1 dc 3d
       -0.026524607 0.09423397 0.14493772 0.10785242
000110 fe 9a 82 bc 27 fa ed 3e e2 ee 6b 3e 64 09 57 3d
       -0.015943047 0.46479914 0.23040345 0.05249919
000120 f4 f0 aa 3d 34 7c d0 3e 10 35 82 3e 6f 68 b1 3e
       0.083467394 0.4071976 0.25431108 0.3464999
000130 83 9d da 3e 48 eb 7f 3e f7 b1 61 3e 5d 13 63 3e
       0.42698297 0.24992096 0.22040544 0.22175355
000140 34 e8 21 3e 32 95 83 3e f3 e8 07 3f 5e 91 59 bd
       0.15811235 0.25699764 0.5308983 -0.05311715
000150 2e 29 88 bd 8e 75 b8 3d 5c f5 34 3e 98 88 b8 3d
       -0.066484794 0.09006797 0.17671722 0.09010428
000160 11 71 b5 3e 72 be c0 3e 67 80 2e 3e c4 1a 70 3e
       0.35437825 0.37645298 0.17041169 0.2344771
000170 83 bb 91 bd 7d 74 c5 3e 12 c5 9e 3d 1e 1a 11 be
       -0.07115843 0.38565436 0.07752432 -0.14170119
000180 3c e5 0f 3c 35 98 8b 3d f3 f7 19 3e 97 04 df 3d
       0.008782681 0.068161406 0.15035991 0.10889547
000190 26 ed 15 bd 84 46 91 3e 27 e4 91 3e 01 1d 46 3e
       -0.036603115 0.28374112 0.2849438 0.19347002
0001a0 b5 16 3e 3e a3 93 8e 3d a9 d1 b8 3e c0 f7 ae 3e
       0.1856335 0.06961753 0.36097458 0.34173393
0001b0 52 1d 13 3e b5 bb 57 3e 1e 6b 16 bd 89 c0 a2 3e
       0.14366654 0.21067698 -0.03672325 0.31787518
0001c0 a1 85 b4 3e 50 9e 1c 3d 3a 19 fb 3e 86 1c 30 3e
       0.352582 0.038236916 0.49042684 0.17198381
0001d0 80 0e a4 3c fc f7 81 bd 23 99 93 bc 40 c3 62 bd
       0.020026445 -0.063461274 -0.018017357 -0.055361986
0001e0 61 8d b2 3d b2 fd 43 3e 7c 46 7b 3d c6 d2 37 3d
       0.08718372 0.19139746 0.061346516 0.044878744
0001f0 de 36 52 bb b3 0c c0 3e fc b1 c8 bc 3e e3 b9 bd
       -0.003207616 0.3750969 -0.024498932 -0.09076546
000200 83 d9 d7 3d e2 b3 d2 3d 5d 1c 88 3e e6 5c fd 3e
       0.10539534 0.10288216 0.2658414 0.49484938
000210 20 eb 12 bf 23 bd 3f bf dd 87 2f bf 1a f8 83 3f
       -0.5739002 -0.74897975 -0.68566686 1.031009
000220 fe 1f 75 3f 27 9d 41 3f d7 74 61 bf cd aa 0b 3e
       0.9575194 0.7563042 -0.8806891 0.13639374
000230 7b a5 d7 3e c5 93 12 3f bf 22 6d 3f c2 d6 8a be
       0.4211844 0.5725673 0.92631143 -0.27116972
000240 67 a7 d6 be 14 a5 6f bf 0e 28 8a bd fa a5 55 3d
       -0.41924593 -0.93611264 -0.06745921 0.05216024
000250 2d 13 1d be 3d 93 44 bf d4 53 5d be 2f 13 72 bc
       -0.15339346 -0.7678717 -0.21614009 -0.014775082
000260 da b6 e3 be 46 27 b2 be 5a e1 02 bd 69 0b 2d be
       -0.44475442 -0.34795588 -0.031953193 -0.16898884
000270 74 8a 01 bf 64 0b 56 bf b0 e0 45 bf 3f d5 8c 3c
       -0.5060189 -0.8361113 -0.7729597 0.017191527
000280 24 6a d5 3e 4b b0 f1 bd 92 23 db 3d 52 cc bc 3e
       0.4168254 -0.11801203 0.10700144 0.36874634
000290 71 b2 3a 3f 4c 26 53 bf 86 79 fe be a8 83 0a 3e
       0.7292853 -0.8248031 -0.4970209 0.13526785
0002a0 4c bf df bd 6e 4d b8 3d 85 01 ac be 71 5d 49 3e
       -0.10925159 0.089991435 -0.3359491 0.19664551
0002b0 85 78 2f 3e 93 06 9b be 89 20 91 3e d3 ae 0f bf
       0.17135818 -0.30278453 0.28345135 -0.56126136
0002c0 d1 ce 05 bf c4 c6 f8 be 7f 2c a3 be 67 98 26 bb
       -0.522687 -0.48589146 -0.31869885 -0.0025420429
0002d0 97 1e a9 3d cc 58 d8 bd 49 67 1f 3f ab 7c 68 bd
       0.08257788 -0.10563812 0.62266976 -0.056759518
0002e0 04 f3 37 bf a5 58 85 bd df ee 5d 3d 3f e1 bc be
       -0.7185519 -0.06511048 0.054182883 -0.368906
0002f0 e9 d5 ba 3e 28 0a 1e be 70 e9 8e be 3b fe 6d 3e
       0.36491325 -0.15433562 -0.27912474 0.23241512
000300 75 a8 e1 3e ea 6b 56 3d 9b 1a d0 be f7 77 7b be
       0.44073835 0.05234901 -0.40645298 -0.24557482
000310 13 d6 61 3f 7d 65 2a bd da 40 ff 3d da 59 5c bf
       0.88217276 -0.041600693 0.12463541 -0.860746
000320 8e 55 34 bf 94 bb d6 bc 83 c8 56 be b4 df 72 be
       -0.70443046 -0.026212491 -0.20974927 -0.23718148
000330 07 56 bf be a8 74 a4 be 7e 73 04 bf ac a0 ce bd
       -0.3737032 -0.32120252 -0.5173873 -0.100892395
000340 7b 27 c9 be 56 d7 48 bf 7c f1 06 bf 82 d4 15 bf
       -0.39287934 -0.78453577 -0.52712226 -0.58527386
000350 7f 3a 03 3d e6 b8 12 3e 93 f2 7d be de 65 d5 3c
       0.032038208 0.14328346 -0.24799566 0.02604955
000360 27 fb 8a be 9d 79 77 bd 20 0a 97 be 08 85 22 be
       -0.2714474 -0.060418714 -0.29499912 -0.1587106
000370 6c 91 c2 3e 90 1b 01 be e3 24 27 3f a5 15 0d 3d
       0.38001573 -0.1260817 0.6529066 0.03444447
000380 60 9e cb be 28 cb 0f be ff a1 22 bf be 67 dc bd
       -0.39769268 -0.14042342 -0.63528436 -0.10761975
000390 5e e5 30 3e a0 63 b4 be 53 3c 10 be d8 07 e3 3e
       0.17274997 -0.35232258 -0.14085512 0.44341922
0003a0 2b 9c 0b bd 83 5b 7c be 30 19 7b be 8a 64 d7 be
       -0.03408448 -0.24644284 -0.24521327 -0.42068893
0003b0 22 86 c6 be f9 c8 15 be 5a 9d a4 3d d3 6e 3e be
       -0.3877421 -0.14627446 0.08037825 -0.18596964
0003c0 dc 98 c1 3d ed 65 6c 3e 0d b9 39 bf 0f e4 8a be
       0.09452984 0.23085757 -0.7254799 -0.2712712
0003d0 e1 0e 13 be c3 2f 65 bd 34 ad cb 3d 37 67 20 3e
       -0.14361145 -0.055953752 0.09945145 0.15664373
0003e0 b3 a4 e0 3c 64 63 2b 3c 84 df 08 3f 3c 17 37 3f
       0.027422285 0.010460708 0.5346606 0.7151983
0003f0 1e cb 45 3f da 3f 23 be f1 8b 27 3e 7b 14 36 bd
       0.7726306 -0.15942326 0.16361977 -0.044453125
